2022-2023-2/Data_Mining/assignment2/link_prediction/tmp/classifier.pt (torch, 68575 bytes, 4 tensors)

fc1.weight f4 [128, 128]
-1.606707 1.5853001 -1.6458504 -1.6813725 -1.3374302 1.6711779 1.5819544 1.6907501
-1.5629889 1.6703455 -1.0953641 -1.6026418 1.6271359 -1.6940123 -1.5614465 -1.6896023
1.6696253 0.66500854 1.6342744 1.573007 -1.6795281 -1.6519902 -1.6426183 -1.6453304
-1.661823 -1.6269794 1.6467669 -1.5973457 1.52301 1.6679122 1.6189349 -1.5546001
-1.6625986 1.6807669 1.6767963 1.4418428 -1.6319871 1.6521106 1.661329 -1.5463026
1.6598299 -1.6237254 1.5693663 -1.6500546 -1.6524004 1.6973094 1.5004345 -1.6926223
-1.6417837 -1.5024177 -1.690002 1.6389393 1.6825575 -1.6215186 1.6515576 1.6717302
1.5416722 -1.687812 -1.6217873 1.627537 -1.6007093 1.694027 -1.5831367 1.602475
1.6515179 -1.6924074 -1.5137938 -1.6422387 -1.6089672 1.5992672 1.7011766 -1.6606854
-1.6190178 1.6249483 1.6301086 1.5737026 1.5983871 -1.5844008 1.6402757 1.6738439
-1.2926944 1.642852 -1.5475711 1.6778481 1.6210084 -1.6871182 1.6469901 1.6789019
-1.6112328 1.5797844 -1.6427764 1.6468289 1.6028826 -1.692803 1.6339674 1.664091
-1.6829941 1.5541923 1.6221681 -1.6781042 -1.6330383 -1.6578671 1.5847518 1.619173
-1.5566036 -1.6840051 -1.5013362 1.6794703 1.6131703 1.5856934 -1.6927544 -1.6936436
1.5723749 1.3018135 1.6618443 -1.6644089 1.6963297 -1.5898515 1.6324725 1.5099351
1.6270683 1.602237 -1.5676786 -1.6737788 -1.6505628 1.5528467 1.5528054 -1.5499338
-1.6288503 -1.6193272 1.6878562 -1.6488844 1.6100855 1.5646304 -1.6062037 -1.601647
-1.6646209 1.6116453 1.6796559 1.5243206 1.5891579 -1.6773939 1.6527125 -1.597773
1.5604347 1.6418556 1.6020708 1.5631123 -1.7023679 -1.6798068 1.6600995 -1.6213108
1.6865174 1.5366445 -1.6754115 -1.5553364 1.5050558 -1.636097 1.5513861 1.6718931
-1.6778078 1.5080096 1.6144478 -1.6771796 -1.6617544 1.6573449 -1.6318458 -1.663145
-1.6784891 1.0983099 -1.614554 -1.6617621 1.6065371 1.6242104 1.6318387 1.6390704
-1.6030227 -1.5500138 -1.6740805 -1.6870321 1.5954584 1.5697393 1.667305 -1.6092249
1.6606119 1.6354276 -1.6622689 -1.5996697 1.66582 1.696221 -1.6933801 1.5924169
1.6411638 -1.6371118 -1.6741815 -1.6471878 -1.6757791 -1.6475325 -1.5531889 -1.6314104
-1.4316912 1.6626533 -1.5890493 -1.6571847 1.5956774 -1.6990958 -1.6711897 -1.4610233
1.5401208 1.6644379 -1.6548383 -1.6609346 1.6452327 1.603668 -1.6167257 1.6845375
-1.6030847 1.6462638 1.6258081 1.625561 1.5821097 -1.6467193 -1.6505181 1.5522306
-1.554953 -1.68439 -1.6578563 -1.6766059 1.6106709 -1.6597433 1.5455117 -1.393146
-1.6577854 -1.6498854 1.5893936 -1.667101 1.6597277 -1.661517 1.6362741 -1.599485
1.5358324 -1.5550543 1.5617377 -1.6318487 1.5484214 -1.633068 1.5842775 1.5342866
1.4617666 1.6889877 1.5585347 -1.6010284 -1.5688603 1.6697444 1.6425952 -1.5853189
00000000: 93a8 cdbf 1deb ca3f 3aab d2bf 3737 d7bf
00000010: ea30 abbf 28e9 d53f 7b7d ca3f 806a d83f
00000020: 0510 c8bf e2cd d53f e434 8cbf 5e23 cdbf
00000030: fd45 d03f 65d5 d8bf 7bdd c7bf e344 d8bf
00000040: 48b6 d53f 003e 2a3f e72f d13f 4b58 c93f
00000050: c7fa d6bf 6a74 d3bf 5141 d2bf 309a d2bf
00000060: 9eb6 d4bf dc40 d0bf 42c9 d23f d375 ccbf
00000070: fef1 c23f 267e d53f 4239 cf3f 23fd c6bf
00000080: 08d0 d4bf 5f23 d73f 43a1 d63f 4e8e b83f
00000090: f4e4 d0bf 5c78 d33f 6ea6 d43f 3eed c5bf
000000a0: 4e75 d43f 3cd6 cfbf ffe0 c83f fd34 d3bf
000000b0: db81 d3bf 6f41 d93f 3d0e c03f d9a7 d8bf
000000c0: f825 d2bf 394f c0bf fc51 d8bf c3c8 d13f
000000d0: 0b5e d73f ec8d cfbf 3d66 d33f 41fb d53f
000000e0: 8455 c53f 390a d8bf ba96 cfbf 2253 d03f
000000f0: 0be4 ccbf e0d5 d83f 39a4 cabf e71d cd3f
00000100: f064 d33f cea0 d8bf ffc3 c1bf e134 d2bf
00000110: a3f2 cdbf cab4 cc3f 28c0 d93f 5791 d4bf
00000120: fa3b cfbf 4efe cf3f 66a7 d03f 166f c93f
00000130: f397 cc3f a5cd cabf 8ef4 d13f 8440 d63f
00000140: 0377 a5bf f948 d23f cf16 c6bf bac3 d63f
00000150: 347d cf3f 7df3 d7bf 92d0 d23f 42e6 d63f
00000160: e03c cebf 6036 ca3f 7f46 d2bf 4acb d23f
00000170: 422b cd3f c5ad d8bf d825 d13f ef00 d53f
00000180: 5a6c d7bf c6ef c63f 34a3 cf3f 1ecc d6bf
00000190: 6607 d1bf fd34 d4bf 26d9 ca3f 1041 cf3f
000001a0: c93e c7bf 7b8d d7bf c92b c0bf e2f8 d63f
000001b0: 5d7c ce3f 00f8 ca3f 2dac d8bf 50c9 d8bf
000001c0: 9543 c93f d3a1 a63f 50b7 d43f 5a0b d5bf
000001d0: 5521 d93f 4180 cbbf dcf4 d03f 8e45 c13f
000001e0: c643 d03f 1a16 cd3f b1a9 c8bf 623e d6bf
000001f0: a445 d3bf aec3 c63f 54c2 c63f 3b64 c6bf
00000200: 2b7e d0bf 1d46 cfbf ac0b d83f a50e d3bf
00000210: 4817 ce3f cf45 c83f 1598 cdbf c502 cdbf
00000220: 4c12 d5bf 654a ce3f f7fe d63f f01c c33f
00000230: 8769 cb3f d8b4 d6bf 158c d33f d383 ccbf
00000240: 53bc c73f 5328 d23f a810 cd3f 1014 c83f
00000250: 31e7 d9bf e903 d7bf 247e d43f 1d87 cfbf
00000260: cddf d73f c4b0 c43f e273 d6bf 4315 c7bf
00000270: aba5 c03f a06b d1bf d293 c63f 9800 d63f
00000280: 68c2 d6bf 7506 c13f 3aa6 ce3f d2ad d6bf
00000290: 5eb4 d4bf e123 d43f 53e0 d0bf efe1 d4bf
000002a0: bbd8 d6bf 6b95 8c3f b5a9 cebf 9fb4 d4bf
000002b0: 02a3 cd3f 20e6 cf3f 17e0 d03f 0fcd d13f
000002c0: d92f cdbf da66 c6bf 4548 d6bf abf0 d7bf
000002d0: fb37 cc3f 38ed c83f 406a d53f 15fb cdbf
000002e0: ee8e d43f b155 d13f 3ac5 d4bf fac1 ccbf
000002f0: 9739 d53f c51d d93f aec0 d8bf 51d4 cb3f
00000300: a811 d23f e18c d1bf 944b d6bf 0dd7 d2bf
00000310: ee7f d6bf 58e2 d2bf e5ce c6bf 0ed2 d0bf
00000320: a841 b7bf d3d1 d43f f865 cbbf a11e d4bf
00000330: 283f cc3f f97b d9bf 8be9 d5bf d002 bbbf
00000340: ae22 c53f 4d0c d53f bed1 d3bf 8199 d4bf
00000350: fc96 d23f fe44 cd3f def0 cebf ed9e d73f
00000360: e131 cdbf c6b8 d23f 7b1a d03f 6212 d03f
00000370: 9282 ca3f b3c7 d2bf 2d44 d3bf 7eaf c63f
00000380: b308 c7bf 179a d7bf a334 d4bf 069b d6bf
00000390: 772a ce3f 7872 d4bf 54d3 c53f 9c52 b2bf
000003a0: 5032 d4bf 722f d3bf 4071 cb3f 9163 d5bf
000003b0: f571 d43f 97ac d4bf 6e71 d13f edbb ccbf
000003c0: 2896 c43f 050c c7bf 05e7 c73f 6be0 d0bf
000003d0: ac32 c63f 5f08 d1bf 9bc9 ca3f 8163 c43f
000003e0: 2b1b bb3f c030 d83f 117e c73f 80ee ccbf
000003f0: 6ad0 c8bf 2fba d53f 8f40 d23f bbeb cabf

fc1.bias f4 [128]
1.5343333 1.4026836 1.650966 1.5455456 -1.6957483 1.5416545 1.6547194 -1.613665
-1.6766686 -1.6514277 -1.6596423 1.5221064 1.6737592 -1.6921351 -1.6769371 1.5979847
1.5625271 1.641684 1.5229563 1.5384202 1.5512064 -1.5328386 -1.6123158 1.5349032
-1.6359731 1.5730846 1.5994582 1.5663955 1.6573186 1.5150799 -1.6217533 -1.5787446
-1.6101654 1.5853826 -1.5416851 1.5407778 -1.648618 -1.6531482 1.580753 -1.5614527
-1.5551527 -1.6170111 1.5839964 1.5191206 1.5481843 -1.5701979 1.6387323 -1.5636542
1.6784924 -1.670543 -1.5509512 1.6037375 1.5404496 -1.6045761 1.5908352 1.5714604
1.5313716 -1.6146225 1.5631282 1.5447742 1.5993954 1.633354 1.6806192 1.5802367
1.5200609 -1.5524195 -1.5988975 -1.6021746 -1.647992 -1.6414272 -1.6062298 -1.6728076
-1.6737435 1.6102161 1.5162019 1.6609429 -1.5673877 1.5024675 1.5999358 1.6347708
1.5867478 -1.6748871 1.5308629 1.5191859 -1.6617239 -1.5599501 1.5499066 1.6398976
-1.5283405 1.6144094 1.5739586 -1.53692 -1.6751949 1.5200846 -1.6211373 1.6465622
-1.5901918 -1.6916648 -1.5715342 -1.5647892 1.5231705 1.5812867 -1.6291932 -1.5883069
-1.5811703 1.6655548 -1.6572568 1.5403415 1.6319762 1.550445 -1.6538326 1.629275
-1.5991507 -1.6427519 -1.5658782 -1.5409485 -1.6346073 -1.6823024 -1.6146332 -1.5517278
-1.616693 1.5926881 1.6584663 -1.546704 -1.5524833 1.5509425 1.5646708 1.3031534
00000000: 0965 c43f 238b b33f db52 d33f 70d4 c53f
00000010: 480e d9bf ef54 c53f d8cd d33f 938c cebf
00000020: 149d d6bf fc61 d3bf 296f d4bf 62d4 c23f
00000030: be3d d63f e297 d8bf e0a5 d6bf c38a cc3f
00000040: e300 c83f b422 d23f 3bf0 c23f f4ea c43f
00000050: ee8d c63f 0e34 c4bf 5d60 cebf b577 c43f
00000060: 9167 d1bf d65a c93f 0cbb cc3f a67f c83f
00000070: 0423 d43f 23ee c13f 9d95 cfbf 4e14 cabf
00000080: e619 cebf d1ed ca3f f055 c5bf 3538 c53f
00000090: ea05 d3bf 5c9a d3bf 1d56 ca3f afdd c7bf
000000a0: 3e0f c7bf 38fa cebf 65c0 ca3f 8b72 c23f
000000b0: e72a c63f 3ffc c8bf fbc1 d13f d225 c8bf
000000c0: d7d8 d63f 5ad4 d5bf 9285 c6bf 4547 cd3f
000000d0: 742d c53f c062 cdbf 7da0 cb3f 9d25 c93f
000000e0: fc03 c43f f3ab cebf 9614 c83f 29bb c53f
000000f0: fdb8 cc3f be11 d13f 881e d73f 3245 ca3f
00000100: 5b91 c23f afb5 c6bf aca8 ccbf 0f14 cdbf
00000110: 67f1 d2bf 491a d2bf f098 cdbf 8f1e d6bf
00000120: 3a3d d6bf 901b ce3f e712 c23f c799 d43f
00000130: 29a0 c8bf db50 c03f b2ca cc3f 2b40 d13f
00000140: 8d1a cb3f b362 d6bf 51f3 c33f af74 c23f
00000150: 5eb3 d4bf 72ac c7bf 5763 c63f 2ae8 d13f
00000160: a9a0 c3bf f8a4 ce3f 7a77 c93f cbb9 c4bf
00000170: c96c d6bf 2292 c23f 6d81 cfbf 8dc2 d23f
00000180: 688b cbbf 7988 d8bf 0828 c9bf 034b c8bf
00000190: 40f7 c23f 9a67 ca3f 6789 d0bf a44d cbbf
000001a0: ca63 cabf e630 d53f fe20 d4bf e929 c53f
000001b0: 99e4 d03f fb74 c63f c9b0 d3bf 158c d03f
000001c0: f8b0 ccbf b245 d2bf b26e c8bf cd3d c5bf
000001d0: d03a d1bf af55 d7bf 4dac cebf 049f c6bf
000001e0: ccef cebf 34dd cb3f a048 d43f 66fa c5bf
000001f0: c6b7 c6bf 4985 c63f 2247 c83f bbcd a63f

fc2.weight f4 [2, 128]
1.6692082 1.5535561 1.6447744 1.6654248 1.5408212 1.5943395 1.6893249 1.5275494
1.5459285 1.5215825 1.5599651 1.6534197 1.6834639 1.5502088 1.5400336 1.6563084
1.6621816 1.5525148 1.6029927 1.655438 1.5596153 1.5730957 1.5402647 1.670829
1.5481976 1.6967375 1.6305478 1.6921799 1.6063541 1.6225382 1.5949173 1.6067368
1.5300516 1.5702001 1.5274069 1.5820249 1.5285915 1.561691 1.6784241 1.6050756
1.5430372 1.5610199 1.631168 1.6961367 1.626454 1.5307623 1.6465087 1.5489295
1.6714324 1.5658067 1.5583246 1.6837794 1.6054993 1.6209642 1.6715498 1.5911376
1.6385759 1.5229603 1.6076663 1.6701015 1.6621796 1.5944157 1.6779437 1.6212566
1.6922896 1.5488377 1.56975 1.5957999 1.5583314 1.5328363 1.6269556 1.5814097
1.5342523 1.6701094 1.5443367 1.6897091 1.6475286 1.6118037 1.6060017 1.5725133
1.6914455 1.62917 1.6828258 1.6564188 1.6762578 1.6293684 1.6792388 1.694716
1.5618092 1.639802 1.6547502 1.5873424 1.5526909 1.5891325 1.5556237 1.6473031
1.619524 1.571162 1.5342957 1.5486393 1.6967604 1.5975963 1.5596662 1.5797671
1.5257994 1.6863273 1.5284791 1.6336592 1.5464658 1.6001548 1.599185 1.6887527
1.5503132 1.6547337 1.6502267 1.5797907 1.5334783 1.6213692 1.5515608 1.5665382
1.5406083 1.6952846 1.6130719 1.5653043 1.5453324 1.6418136 1.6546885 1.5514373
-1.6443654 -1.662267 -1.6264013 -1.6440369 -1.5875113 -1.6345757 -1.6909832 -1.556371
-1.6004297 -1.5944263 -1.5366197 -1.586742 -1.6257204 -1.6340965 -1.6082104 -1.6017467
-1.6923248 -1.6867013 -1.6324008 -1.6454171 -1.6775136 -1.5458658 -1.6693064 -1.6936657
-1.549007 -1.5347234 -1.672711 -1.5368255 -1.6621046 -1.6846749 -1.5355357 -1.5601777
-1.6535509 -1.6751373 -1.6818538 -1.6943159 -1.6227055 -1.5785148 -1.5531921 -1.5655004
-1.5670869 -1.5855095 -1.626447 -1.5280801 -1.6377422 -1.6181861 -1.6059183 -1.6007888
-1.629846 -1.6428634 -1.5504751 -1.610058 -1.6284493 -1.5262772 -1.6353376 -1.6330006
-1.6093048 -1.5614668 -1.68429 -1.6102271 -1.6775267 -1.6539143 -1.6843379 -1.6432163
-1.6800475 -1.5719494 -1.5714555 -1.5624167 -1.6449507 -1.5861063 -1.5579475 -1.5433269
-1.5479072 -1.669016 -1.6809597 -1.6418006 -1.5299686 -1.6049901 -1.6518462 -1.6544845
-1.5570425 -1.540877 -1.5965269 -1.6667019 -1.5252668 -1.5657489 -1.6490053 -1.60582
-1.5536104 -1.6286893 -1.5724704 -1.5777277 -1.5491078 -1.6517719 -1.6076753 -1.682709
-1.5510037 -1.5483422 -1.6658068 -1.6535987 -1.6824293 -1.63294 -1.5928969 -1.5665222
-1.5678917 -1.6672876 -1.5485283 -1.6596234 -1.6899178 -1.6503129 -1.6085181 -1.6181927
-1.5970479 -1.5369076 -1.5278698 -1.6107241 -1.6183195 -1.5306352 -1.5839909 -1.5811538
-1.5416175 -1.6799452 -1.6581166 -1.5519445 -1.5972984 -1.679384 -1.6668079 -1.65966
00000000: 9da8 d53f edda c63f f887 d23f a42c d53f
00000010: a139 c53f 5113 cc3f cc3b d83f bd86 c33f
00000020: fce0 c53f 37c3 c23f f0ac c73f 42a3 d33f
00000030: bf7b d73f 3e6d c63f d21f c53f ea01 d43f
00000040: 5ec2 d43f ceb8 c63f dd2e cd3f 64e5 d33f
00000050: 79a1 c73f 335b c93f 6527 c53f badd d53f
00000060: 572b c63f b22e d93f cab5 d03f 5a99 d83f
00000070: 039d cd3f 55af cf3f 4026 cc3f 8da9 cd3f
00000080: bbd8 c33f 51fc c83f 1282 c33f cb7f ca3f
00000090: e3a8 c33f 7ee5 c73f 9ad6 d63f 1e73 cd3f
000000a0: 3e82 c53f 80cf c73f 1dca d03f 021b d93f
000000b0: a52f d03f 05f0 c33f ccc0 d23f 5243 c63f
000000c0: 7ff1 d53f 5b6c c83f 2e77 c73f 1586 d73f
000000d0: 0081 cd3f c17b cf3f 58f5 d53f 66aa cb3f
000000e0: dbbc d13f 5df0 c23f 02c8 cd3f e3c5 d53f
000000f0: 4dc2 d43f d015 cc3f dcc6 d63f 5685 cf3f
00000100: f29c d83f 5040 c63f 91ed c83f 2c43 cc3f
00000110: 6777 c73f fb33 c43f 1540 d03f a26b ca3f
00000120: 6162 c43f 25c6 d53f d3ac c53f 6348 d83f
00000130: 38e2 d23f 954f ce3f 7791 cd3f 1e48 c93f
00000140: 4981 d83f a488 d03f d666 d73f 8805 d43f
00000150: 9e8f d63f 258f d03f 4cf1 d63f 74ec d83f
00000160: 5de9 c73f 08e5 d13f dbce d33f 092e cb3f
00000170: 93be c63f b268 cb3f ad1e c73f d4da d23f
00000180: 904c cf3f d61b c93f cd63 c43f d039 c63f
00000190: 722f d93f 097e cc3f 24a3 c73f cf35 ca3f
000001a0: 654d c33f 93d9 d73f 34a5 c33f bf1b d13f
000001b0: 97f2 c53f dfd1 cc3f 18b2 cc3f 0c29 d83f
000001c0: aa70 c63f 50ce d33f a13a d33f 9536 ca3f
000001d0: 0449 c43f 0789 cf3f 8b99 c63f 5384 c83f
000001e0: a732 c53f 16ff d83f 2479 ce3f e45b c83f
000001f0: 74cd c53f f326 d23f d5cc d33f 7f95 c63f
00000200: 917a d2bf 2ac5 d4bf eb2d d0bf cd6f d2bf
00000210: 9233 cbbf c739 d1bf 2372 d8bf 2a37 c7bf
00000220: e1da ccbf 2916 ccbf f4af c4bf 5d1a cbbf
00000230: 9b17 d0bf 132a d1bf d7d9 cdbf 0906 cdbf
00000240: 199e d8bf d4e5 d7bf 82f2 d0bf 079d d2bf
00000250: c4b8 d6bf eede c5bf d5ab d5bf 0aca d8bf
00000260: dd45 c6bf d171 c4bf 651b d6bf b3b6 c4bf
00000270: d8bf d4bf 6da3 d7bf 6f8c c4bf e7b3 c7bf
00000280: 8ea7 d3bf e66a d6bf fc46 d7bf 58df d8bf
00000290: d0b4 cfbf c60c cabf 00cf c6bf 5162 c8bf
000002a0: 4e96 c8bf faf1 cabf 6a2f d0bf 2198 c3bf
000002b0: 89a1 d1bf b920 cfbf bb8e cdbf a6e6 ccbf
000002c0: cb9e d0bf 5949 d2bf f875 c6bf 6116 cebf
000002d0: 0771 d0bf 0d5d c3bf be52 d1bf 2a06 d1bf
000002e0: b3fd cdbf 25de c7bf d196 d7bf ec1b cebf
000002f0: 32b9 d6bf 77b3 d3bf 6298 d7bf e954 d2bf
00000300: cc0b d7bf a335 c9bf 7425 c9bf 45fd c7bf
00000310: bf8d d2bf 8805 cbbf d36a c7bf bc8b c5bf
00000320: d321 c6bf 51a2 d5bf b029 d7bf 8626 d2bf
00000330: 03d6 c3bf 5170 cdbf b26f d3bf 26c6 d3bf
00000340: 2b4d c7bf 753b c5bf fe5a ccbf 7d56 d5bf
00000350: f13b c3bf 766a c8bf 9b12 d3bf 828b cdbf
00000360: b5dc c6bf e478 d0bf b646 c9bf fbf2 c9bf
00000370: 2a49 c6bf 436d d3bf 4ec8 cdbf 0263 d7bf
00000380: 4a87 c6bf 1430 c6bf 2839 d5bf 1fa9 d3bf
00000390: d859 d7bf 2e04 d1bf 0ce4 cbbf cd83 c8bf
000003a0: adb0 c8bf ae69 d5bf 2d36 c6bf 8a6e d4bf
000003b0: 3a4f d8bf 743d d3bf ece3 cdbf f020 cfbf
000003c0: 116c ccbf 63b9 c4bf 3d91 c3bf 352c cebf
000003d0: 1825 cfbf dbeb c3bf 37c0 cabf 3f63 cabf
000003e0: b953 c5bf 7208 d7bf 2a3d d4bf 1ea6 c6bf
000003f0: 4674 ccbf 0ef6 d6bf f659 d5bf bd6f d4bf

fc2.bias f4 [2]
1.6722431 -1.6743946
00000000: 100c d63f 9052 d6bf
